…
n2-217:classifier mfonseca$ python convnet.py --config convnet__moments_nano__vgg_features_hard
Using TensorFlow backend.

==> Starting traininig: A convnet classifier using VGG features
Found 6000 samples belonging to 2 classes in ./results/vgg__moments_nano__features/training
Found 3010 samples belonging to 2 classes in ./results/vgg__moments_nano__features/validation
_________________________________________________________________
Layer (type)                 Output Shape              Param #   
=================================================================
conv2d_1 (Conv2D)            (None, 5, 5, 32)          147488    
_________________________________________________________________
activation_1 (Activation)    (None, 5, 5, 32)          0         
_________________________________________________________________
dropout_1 (Dropout)          (None, 5, 5, 32)          0         
_________________________________________________________________
flatten_1 (Flatten)          (None, 800)               0         
_________________________________________________________________
dense_1 (Dense)              (None, 32)                25632     
_________________________________________________________________
activation_2 (Activation)    (None, 32)                0         
_________________________________________________________________
dropout_2 (Dropout)          (None, 32)                0         
_________________________________________________________________
dense_2 (Dense)              (None, 2)                 66        
_________________________________________________________________
activation_3 (Activation)    (None, 2)                 0         
=================================================================
Total params: 173,186
Trainable params: 173,186
Non-trainable params: 0
_________________________________________________________________
Epoch 1/20
2018-06-25 21:02:11.172710: W tensorflow/core/platform/cpu_feature_guard.cc:45] The TensorFlow library wasn't compiled to use SSE4.2 instructions, but these are available on your machine and could speed up CPU computations.
…
