…
2018-06-25 21:45:38.264008: W tensorflow/core/platform/cpu_feature_guard.cc:45] The TensorFlow library wasn't compiled to use AVX2 instructions, but these are available on your machine and could speed up CPU computations.
2018-06-25 21:45:38.264012: W tensorflow/core/platform/cpu_feature_guard.cc:45] The TensorFlow library wasn't compiled to use FMA instructions, but these are available on your machine and could speed up CPU computations.
_________________________________________________________________
Layer (type)                 Output Shape              Param #   
=================================================================
conv_lst_m2d_1 (ConvLSTM2D)  (None, 30, 5, 5, 10)      187960    
_________________________________________________________________
conv3d_1 (Conv3D)            (None, 30, 5, 5, 1)       271       
_________________________________________________________________
flatten_1 (Flatten)          (None, 750)               0         
_________________________________________________________________
dense_1 (Dense)              (None, 32)                24032     
_________________________________________________________________
activation_1 (Activation)    (None, 32)                0         
_________________________________________________________________
dropout_1 (Dropout)          (None, 32)                0         
_________________________________________________________________
dense_2 (Dense)              (None, 2)                 66        
_________________________________________________________________
activation_2 (Activation)    (None, 2)                 0         
=================================================================
Total params: 212,329
Trainable params: 212,329
Non-trainable params: 0
_________________________________________________________________
Epoch 1/20
8/9 [=========================>....] - ETA: 4s - loss: 0.7401 - acc: 0.5125 Epoch 00000: val_loss improved from inf to 0.75660, saving model to ./results/convlstm__moments_nano__vgg_features_easy/convlstm.hdf5
…
